Practical_Deep_Learning_Master_PyTorch_in_15_Days/New folder/35 - Handwritten Digits/mnist-model.pth (torch, 171824 bytes, 6 tensors)

0.weight f4 [50, 784]
00000000: 371c 02bb 2525 bc3b 5aaa 03bd 0e1b d6bc
00000010: b285 0ebd 850f cd3c 6e79 143b ce46 983c
00000020: feae ce3c 8c20 b4bc 5eb3 a63c 6ef2 573b
00000030: 8a7c fabd 666a d5bd 5d98 5c3d 3ffd 223c
00000040: 87b3 b8bc fce4 f73c d3e1 84bc 4adc 44bb
00000050: fc36 34bc c3c8 d23c ee7a 91bb 03a3 b23c
00000060: 3cc5 afbc ca28 80bb 935a 04bc 833d fd3c
00000070: 0183 da3b 2e26 983c cedf a4bc 645c 003d
00000080: c982 17bd 91b7 cbbd a2d1 d3bd ae4d 0bbe
00000090: b11f 2bbe 19a1 1cbe fd44 9fbe 5811 38be
000000a0: 5076 83be fe1d 6ebe f65d fa3c a67e 0cbf
000000b0: 72d8 aabe cbfd b3be 1bf3 f2be dfd4 b5be
000000c0: 7ece a9be d3d0 91be 828d 16be 9791 45bd
000000d0: ccf9 f53c 65c9 083c 6eb7 9a3a 9ca5 8cbb
000000e0: 0ee4 1a3c a5e8 603b 0418 8dbd 880e c4bd
000000f0: 114b bdbd 65df 9abe feec 91be 8096 5bbe
00000100: 147c 8abe 25a0 e9bd 19b8 35be 71c2 a7be
00000110: c94e 88be a059 dbbe bd4c c3be 132b debe
00000120: a3b8 b0be a2c6 3bbe 7035 44be d1c0 6bbe
00000130: 3d97 60be d64c 6abe d1b6 c2be 6281 21be
00000140: 7b11 dd3d c0e3 e73d de69 a83c dc82 aeba
00000150: d5ca d3bc 559f e43c 29b0 02bd 26ab 7fbe
00000160: 0e3a b0be 4e73 36be e5df 0dbe ab74 f6bd
00000170: 68e2 8cbe 97f0 a2be cc64 48be 36e6 68be
00000180: 90c5 8abe 2f07 edbe 7a5f 8dbe ea38 0abc
00000190: 0935 febd f443 2cbd f07e 33be 33c4 d8bd
000001a0: 01d5 9ebd a38e 1ebd 2469 9abd a81d 12bf
000001b0: ad9f 36be 6c4b e83d b275 033d 6377 963c
000001c0: d002 a63c 8c84 f13c 09a4 61bd 4293 b5be
000001d0: a4ec 99be b0fb 8dbe 40c0 10be a21f cebc
000001e0: cf9a 5fbc 1eb1 e03b 0d20 f03d ebb2 b6ba
000001f0: 6bcc 593d c1de 81bd 7e37 42bd be00 373d
00000200: 2812 173e 449c 4f3e f2f1 6d3e 407f 793d
00000210: 9e0c 5ebd ae9b f13b 03a7 823e 4df7 cdbd
00000220: b6a8 e7ba 3c92 1c3e dd3b f03d 67a9 c2bc
00000230: 03a6 02bd 0573 083c 09a9 81be aa1a 4cbe
00000240: d552 22be 8ba3 2fbd fe0f f13a de09 243d
00000250: 82e1 cf3d 264b 113e 475d c03d 5c4e babd
00000260: 0560 7cbd aae6 68bd 8383 33be 204f 16be
00000270: 341f 1fbd 7ddc 833d 7460 9d3e 5b5f bb3d
00000280: 6533 3bbd 4a8f 13be 615f d13d bfb1 a73c
00000290: 407e fdbd f39c 86bc 05a6 a4bd 4375 05bd
000002a0: 6700 b8bc b0c9 f73c 5e6d d33b 1a7d b33e
000002b0: 0032 933e c742 253e 57ac be3d 248d 84bd
000002c0: d14a 4fbc 4b0e f6bc 0cca fcba 508b ca3c
000002d0: 63c1 b33d 5d1f abbd dfa7 54be 05ce 6fbe
000002e0: 4fb3 12be ed44 bb3d 67b1 d93d 9979 c53d
000002f0: 5ecd a63d ccf4 1d3e 6c9c 1e3d c83b fabd
00000300: 6eb7 58be db87 04bd 0f32 5abd ee33 ae3d
00000310: baf4 413d 2b66 d73e 1995 763e 81b2 d93e
00000320: 11b8 043e 507b 49bd 8f7c 3c3e 1322 033d
00000330: 9ecb b8bd 459e b2bd 3f15 94bd 36de 833d
00000340: b374 e63c b3bd 5ebd 9eea 57be ab5e 8abe
00000350: 33ff 1cbe cddf 93bd 977e 523c 4d61 9d3d
00000360: a2b9 0b3e e04a 153e f0ae 993d 872e b4bd
00000370: c41d 0abe f3fb 0e3e 673b 82be 08b8 3b3e
00000380: f35e 06be f27a dd3e 3b6d 9b3e 7f88 743d
00000390: a79e 19be d536 a5bd 1986 7c3c 7910 563c
000003a0: 1f66 a2bd 0c28 5abd 9045 8b3d 1fe7 c83c
000003b0: 2d68 6f3d 5a15 6fbc 6bc4 14be ca35 8cbd
000003c0: 1832 04be 3413 c2bd 5131 093d 73b3 793d
000003d0: 2e92 2a3e 3124 1a3d b6c9 313d 2330 24bd
000003e0: 8314 f7bd b647 ca3d dbb9 1bbd 75ca 16bd
000003f0: 42cd 223e 805e 9e3e bf05 593d 2fa7 58bd
-0.0019853243 0.0057417327 -0.03214488 -0.026135948 -0.03479547 0.025031814 0.0022655386 0.01858845
0.025229927 -0.021988176 0.0203492 0.0032950896 -0.12230785 -0.104206845 0.053856242 0.009948074
-0.022546543 0.030260555 -0.016220963 -0.003003853 -0.010999437 0.025730496 -0.004439703 0.021806246
-0.021456353 -0.0039111124 -0.008078235 0.03091312 0.006668449 0.018572893 -0.02012625 0.03133811
-0.03698996 -0.09947122 -0.10342719 -0.13603851 -0.16711308 -0.15295829 -0.3110732 -0.17975366
-0.25676203 -0.23253629 0.030562382 -0.5488075 -0.3336826 -0.35154566 -0.474511 -0.3551397
-0.33165354 -0.28479633 -0.14702418 -0.04823455 0.030026339 0.008348797 0.0011803934 -0.004292203
0.009453787 0.0034318354 -0.06889346 -0.09573084 -0.092428334 -0.30248562 -0.28501123 -0.2144413
-0.2704779 -0.11407498 -0.17746009 -0.32765535 -0.26622608 -0.42841816 -0.38144484 -0.43392238
-0.34515867 -0.18337491 -0.1916101 -0.23022772 -0.21932693 -0.22880873 -0.38030103 -0.15772012
0.1079435 0.11322737 0.020558294 -0.0013314146 -0.025853554 0.027908007 -0.03190628 -0.24967632
-0.34419292 -0.17817423 -0.1385494 -0.120339714 -0.27516484 -0.3182418 -0.19569701 -0.22744069
-0.27103853 -0.46294543 -0.27611905 -0.008436421 -0.124124594 -0.042056993 -0.17528892 -0.10584297
-0.07755471 -0.038710248 -0.07539585 -0.570765 -0.17834349 0.113425106 0.032094665 0.018367475
0.020265013 0.029482149 -0.055088077 -0.3546391 -0.30063355 -0.27731085 -0.14135838 -0.025161568
-0.013647749 0.0068570515 0.11724863 -0.001393882 0.053173464 -0.06341315 -0.047416203 0.044678442
0.1475302 0.20274454 0.23236826 0.06091237 -0.05421125 0.007373295 0.25518045 -0.100569345
-0.0017674181 0.15290159 0.11730168 -0.023762418 -0.031896602 0.008328204 -0.25324276 -0.19932047
-0.1585191 -0.042880576 0.0018391607 0.040048473 0.10150434 0.14188823 0.09392791 -0.09096977
-0.06161501 -0.056860603 -0.17530636 -0.14678621 -0.038848117 0.06438539 0.3073765 0.09149047
-0.04570331 -0.14410129 0.1022327 0.020470498 -0.12377596 -0.016432261 -0.08039478 -0.032582533
-0.02246113 0.03024754 0.0064522466 0.35056382 0.28749084 0.16138755 0.09310215 -0.06472233
-0.012652115 -0.030036112 -0.0019286289 0.024724633 0.0877712 -0.083555914 -0.20767163 -0.23418434
-0.14326213 0.09144006 0.1062954 0.096423335 0.081446394 0.15425414 0.038723394 -0.122184336
-0.21163723 -0.032356124 -0.053270396 0.085059986 0.04735253 0.42070135 0.24080314 0.42519
0.12960841 -0.049189866 0.1840689 0.032014918 -0.09023212 -0.08721594 -0.07230615 0.06438868
0.028131818 -0.05438013 -0.21085593 -0.2702535 -0.15331726 -0.07220421 0.012847564 0.07684574
0.13645032 0.14579344 0.0750407 -0.08797937 -0.13487917 0.13963298 -0.25435945 0.18331921
-0.13122158 0.43257862 0.30356774 0.059700485 -0.15001927 -0.08067099 0.015412831 0.013065451
-0.07929634 -0.053260848 0.06800377 0.02452427 0.05844896 -0.014592493 -0.14528053 -0.06846197
-0.12909734 -0.09476319 0.033494297 0.06096215 0.16657326 0.03763217 0.043405257 -0.04008497
-0.12064459 0.09876959 -0.038019042 -0.03681417 0.15898612 0.30931473 0.052983996 -0.052893814

0.bias f4 [50]
00000000: 0d96 8f3e 95bc 513e be5e c9bd 49ad 023d
00000010: d30a 5a3e 5b97 bb3d 3573 283d ea56 a33e
00000020: 9953 7dbd 6247 e63d b1c7 9b3d 9cc0 8239
00000030: 8832 12bd cb43 a73d 16b6 9e3d 1c5e db3c
00000040: 1deb 073e 5701 a13c 722e 363e fcfa f93e
00000050: 9093 743d 28e2 b83d 0304 0ebc 92d0 f3bd
00000060: 49f9 a43e 0179 01be 1645 a53e 3341 8ebb
00000070: ddb2 373e bb01 b13c a25d 8dbc ca22 e6bd
00000080: 1619 0e3e fd14 e53b 8c91 b73e 3f60 f2bd
00000090: 89a9 273e 4eb5 973d e2ac a83d 41ea f1bd
000000a0: 423f 003e 2fd1 873d bd92 b7bd f378 143e
000000b0: 9f5d a0bd 284d 9d3c cbbd 07bc a007 17bd
000000c0: cdd7 443e 1e4e 80bc
0.28044167 0.20482095 -0.09832524 0.03190354 0.21293192 0.09159728 0.041125495 0.31902248
-0.061847303 0.11244084 0.076064475 0.00024939037 -0.03569272 0.08167227 0.07749574 0.026778273
0.13273282 0.01965396 0.17791155 0.48824298 0.05971104 0.09027511 -0.008667949 -0.11905016
0.3222144 -0.12643816 0.3227927 -0.0043412684 0.17939325 0.02160727 -0.017256562 -0.11237104
0.13876757 0.0069910274 0.3585323 -0.11834764 0.16373266 0.07407628 0.082361 -0.118122585
0.12524131 0.066316955 -0.08963535 0.14499263 -0.07830357 0.01920183 -0.008284996 -0.036872506
0.19222946 -0.01566225

2.weight f4 [50, 50]
00000000: d9b1 32be 50d9 b7bd d1b0 613d 109f 043d
00000010: fcb5 13be 4b7b 0ebe 3efa c4bd 60d6 dbbc
00000020: 828b ffbc 8a0c ca3d e615 0ebe 6296 efbd
00000030: 3e0e 003d ffd1 81bd 8cbe 62bd 1b3f 1bbe
00000040: ebaa 1c3d a53e bcbd 42ad 1fbe db27 123d
00000050: a63f 0abd 82a1 febd 9fea 5cbd 8a99 36bd
00000060: 1c8d a8bb 4d0b a4bd 5ae1 12be bbbe 433d
00000070: c4a8 983d c731 edbc 1ddd 1ebe 8dc0 9cbd
00000080: 8533 30be 10d6 263d f9be dabd 93b7 93bc
00000090: f771 f03d b2e4 1b3d 300b cbb9 fa99 31be
000000a0: e972 113c 9b89 89bd 82f8 2bbc d8a4 a6bd
000000b0: 3901 06be 0779 6a3d 5466 af3d 533b eb3c
000000c0: 8422 b7bd 81fc 4abd 7873 6d3e 2e22 453e
000000d0: c790 babe b731 3bbe c7ff fc3d 01d7 dbbe
000000e0: 3d68 263e 020b 8ebd 0031 cdbd b8da bc3e
000000f0: eab0 ff3e 21e1 893e 5506 bbbd a5c1 7a3e
00000100: 82a0 a03c 1f20 653e bbc3 83be cf1e d43e
00000110: b41e bd3e 479a f03d b480 b5bd 0c63 6c3e
00000120: 170e 31bd 080e df3e cafe 6dbe 11b0 a0bd
00000130: d915 cbbe f4bc 81be d1b3 bfbe f949 87be
00000140: 5c33 e73d 5aff 3a3e a0e8 f8be 60f9 eb3b
00000150: 8f27 7fbd e101 173c f396 943e 2c11 6e3d
00000160: 5dae 013e 50e4 3c3b 50d5 14bf cbb6 1bbe
00000170: 6263 213d e255 583d e762 cabd 8e88 d33e
00000180: 0cb7 983e 80f0 ddbe 73d3 8e3e 0d4b 793e
00000190: 40c0 343e 38e7 e5bd d23c 153d 5b87 9f3e
000001a0: 885c 27be 03f3 d13d 9dc8 8abd 50ac d7be
000001b0: 84f3 f33d 28cb e5bb 9ff7 88bd 54b6 1fbe
000001c0: f9aa ee3d bbc0 a13e 5e96 963e fb3f d7be
000001d0: 05f8 9c3e 3c55 843e fc64 113d 2af5 43be
000001e0: 1011 1d3e 8a76 fbbc 0099 123e caa5 8bb9
000001f0: 5b1d c53c 9628 733d 1f26 86be 2012 5fbd
00000200: 03e2 09be feaa 99bd 2270 4b3e c1de d4bd
00000210: a59b 0e3e 9e8c 7bbd db9a 1b3e 9713 7f3e
00000220: 087d 02be 1690 31bc b9e1 fbbd 0a7b 223d
00000230: 3a1c 083e 94d2 3c3e 0ed3 8ebe 19ef a8bd
00000240: fbf5 e63b 9501 883e cdcb 423c f120 9b3c
00000250: 642f 3cbe d658 f1be b0ae d63e 0cc3 14be
00000260: e206 3abe 662d 8a3e 67d7 90be fb11 433d
00000270: 8f3d 6b3e 0372 37bd b269 94bd c534 f0bd
00000280: af48 07be f015 5fbe 5cc1 56bd 32fc 2ebe
00000290: 9019 0f3e c897 1b3e 0bbc 45bd e355 2cbd
000002a0: a6ec 363e 8c73 8abd f293 86bd 1512 393d
000002b0: 9ef7 603d e2ef 183e 9f11 90be 66dc 0f3e
000002c0: f78e d1be 02b8 673e 0e87 a1be fc49 4c3c
000002d0: bb0b 37be 9a3c 2b3e 1cde 11bc 7eca 43be
000002e0: 0645 193e 8f0b 933d 4400 8a3d 6986 a0bd
000002f0: 616f 033f 5871 f3bd 4125 f3be 37ab 3e3e
00000300: 6e18 393d e112 a8be d1b8 dd3d 2116 7cbd
00000310: 8fe6 343e 1142 03be 4afc 233e 2635 0e3e
00000320: 3af9 4a3e a903 ca3e 6058 13be fc6b 0fbe
00000330: 1426 52bd b21e b0bd f01b 6d3e 9c7d 893d
00000340: 1f82 873e 4885 983d c186 8d3e 489c 9e3e
00000350: a4fb f73c a81b 4c3d 3dcc fc3b 56c0 6bbe
00000360: b096 923e 5707 893d 2d91 4b3d 0292 153f
00000370: 062f 2c3d d6e6 ad3d 3dd0 423d 60d0 293d
00000380: d12d f63d 3e3d 093d ad3c e2be af01 2e3e
00000390: 58a2 913e 8331 fcbd 6387 343e 6531 8cbc
000003a0: 994c ebbd 3bd5 3bbc de30 cfbe 77a9 76be
000003b0: dfbe 393d f31b 893e 82c1 4bbe 9f73 f8bd
000003c0: 3670 023e f034 a2bd efee 81be 0170 84be
000003d0: 3053 ce3d a04a 853e b23f 103e adab 85bd
000003e0: 672a a73e 88fa 80be 05f0 77be 0101 f63c
000003f0: 9ef1 1a3d 7fb0 78bd e836 69bc f690 73bd
-0.17450656 -0.08976996 0.055100266 0.032378256 -0.1442489 -0.1391422 -0.096180424 -0.02683562
-0.031194452 0.09865673 -0.13875541 -0.11698605 0.031263582 -0.06338882 -0.0553575 -0.15160792
0.038248938 -0.09191636 -0.15593436 0.03568254 -0.033752106 -0.12433149 -0.05393469 -0.04458002
-0.0051437747 -0.08009968 -0.14343777 0.047789317 0.074540645 -0.0289544 -0.15514036 -0.07653914
-0.17207153 0.04073149 -0.106809564 -0.018031871 0.11740487 0.038059898 -0.00038727513 -0.17343894
0.008877494 -0.06715699 -0.010496261 -0.0813691 -0.13086404 0.057244327 0.085644394 0.028714811
-0.0894213 -0.049557213 0.23188579 0.1925132 -0.3643858 -0.18280683 0.12353473 -0.42937472
0.16250701 -0.06935693 -0.10019112 0.3688562 0.49939662 0.26929572 -0.09132067 0.24487932
0.019607786 0.22375534 -0.25735268 0.41429755 0.36937487 0.11748176 -0.08862439 0.23084658
-0.043226328 0.43565392 -0.23241726 -0.07846082 -0.39665106 -0.25339472 -0.37441877 -0.26423624
0.11289093 0.18261471 -0.4861498 0.0072013587 -0.062293585 0.009216757 0.29021415 0.058121845
0.1266417 0.0028822608 -0.5813799 -0.15206449 0.03940142 0.05281628 -0.098821454 0.4131512
0.29827154 -0.4334755 0.27895698 0.24345036 0.17651463 -0.11225742 0.036434956 0.31157956
-0.16343892 0.10251429 -0.06776545 -0.42123652 0.11911681 -0.0070127435 -0.06687855 -0.15596896
0.11653704 0.31592354 0.29411596 -0.42041 0.30657974 0.2584628 0.035496697 -0.19136491
0.1533854 -0.030696172 0.14316177 -0.00026635668 0.02406185 0.059364878 -0.2620096 -0.054460645
-0.13465123 -0.07503317 0.19866994 -0.103940494 0.13926561 -0.0614134 0.15195791 0.24909817
-0.12743008 -0.010837575 -0.122989126 0.03966812 0.13292018 0.18439704 -0.27895397 -0.08248729
0.007048366 0.26563707 0.01188941 0.018936606 -0.18377453 -0.4713809 0.4193015 -0.1452753
-0.18166688 0.2698776 -0.2828934 0.04762457 0.22972701 -0.044786464 -0.07246722 -0.11728815
-0.1321132 -0.21785712 -0.052430496 -0.17088392 0.13974595 0.15194619 -0.048275035 -0.042074095
0.17863712 -0.0676032 -0.06571187 0.04518326 0.054923646 0.14935258 -0.28138444 0.14048919
-0.40929386 0.22628787 -0.3154835 0.012468811 -0.17875569 0.16722336 -0.008903053 -0.19120213
0.14967737 0.07179939 0.06738332 -0.07838137 0.51341826 -0.11886853 -0.4748936 0.18620001
0.045189314 -0.32826903 0.108262666 -0.06154454 0.17666076 -0.12818171 0.1601421 0.13887462
0.19821635 0.39455917 -0.14389181 -0.14006037 -0.051305845 -0.08599605 0.23155189 0.06713411
0.26466462 0.074472964 0.27641872 0.30978608 0.030271359 0.049831063 0.007714777 -0.23022589
0.2863059 0.06690853 0.049698997 0.58425915 0.042037033 0.08491294 0.047561873 0.041458488
0.120204575 0.03350567 -0.44186917 0.1699283 0.2844417 -0.12314131 0.17629771 -0.017113397
-0.11489219 -0.011464412 -0.4046697 -0.24088083 0.045348044 0.26779136 -0.19898036 -0.12131428
0.12738118 -0.07920253 -0.25377604 -0.25866702 0.100744605 0.26033497 0.14086798 -0.06526885
0.32649538 -0.2519114 -0.24212654 0.030029776 0.03782808 -0.060715195 -0.014234282 -0.059464417

2.bias f4 [50]
00000000: 9581 45bd e3f1 88bd 3fca 9abc ab34 3cbd
00000010: a8ce 133e b86b 023e 31e4 843d ad2e 903e
00000020: 222a 143d a2b2 e03d 6be1 213e 3b20 5e3e
00000030: a6cc a5bd c028 d93d eda4 9a3d a7cb 50be
00000040: 1841 cb3d 32e2 6a3e d236 013e 820a d03d
00000050: 912d 253e 8415 26ba 0f04 17be 2a2a 0bbe
00000060: f49b b33c 167e 823e 5a2e 5dbd b5b5 03bd
00000070: 6028 05bd a794 833b 1f80 b5bc 0934 22be
00000080: a705 b3bd d850 953e 4f5d c83c 17b4 803c
00000090: bf52 853e fdb4 8fbd b369 11be f0f1 8f3d
000000a0: 83bc f23d fed2 243e ed58 9f3d 9760 1abe
000000b0: dfed 6d3e 5930 a73e 3c65 d4bd a700 d03c
000000c0: 0fc4 ba3d 0b70 13bd
-0.048219282 -0.06686761 -0.018895267 -0.045948666 0.14434302 0.12736404 0.064888366 0.2816061
0.036172993 0.109715715 0.15808646 0.21691982 -0.08095674 0.106034756 0.07550988 -0.20390187
0.09924525 0.22937849 0.12618569 0.10158254 0.16130663 -0.00063356035 -0.14747642 -0.13590303
0.02192495 0.2548682 -0.053999282 -0.03215571 -0.032509208 0.0040155235 -0.02215582 -0.15840162
-0.087413125 0.2916324 0.024458556 0.015710874 0.26039693 -0.07016943 -0.14200477 0.07028568
0.11852362 0.16096112 0.07780633 -0.15075909 0.23235272 0.32654074 -0.103708714 0.025390936
0.091194265 -0.035995524

4.weight f4 [10, 50]
00000000: 9447 eebd 481c f4be ab76 8bbc 07e9 b0be
00000010: 0888 193d 78de 433e 5fd2 8abe 7e7a 79be
00000020: 85d6 9f3c e101 aa3e 6018 21bf e427 20bf
00000030: 44b1 92bd 824f 883e 2e6d 843d 0d5f 813d
00000040: b488 34be 9347 74be dd0f 7f3d 5b52 573e
00000050: d0b1 ca3d f0dc 84be 659a 0cbd 62ee e4be
00000060: 426e 57be 21a3 633e 4f54 fa3b c0e6 e2be
00000070: 6a98 823d 635f 4e3e 2299 7abe 8ef7 03bd
00000080: 98d6 813e 857c d0bd 2047 dabe 8ddd 923e
00000090: cbb8 f2be 372e a83e fd70 863e 7d97 b4be
000000a0: a21e 2fbe 381a 393d d494 883c 1cfa d0be
000000b0: 48ee 99be 11d1 06bf 21fd 46bd dd1b bdbe
000000c0: d73e 803d a0cf 6e3d e393 ac3c 5d9c bc3e
000000d0: 8b9c 8bbe 7a18 a03e dd69 08bc 137c 2f3e
000000e0: d9fb b23e cf0f 853e 1560 46bd 6ab9 c2be
000000f0: 5299 233e b1d6 19bd e108 963e 6501 c6be
00000100: 333b 6b3d 5d23 543d f291 97bc 481f a6be
00000110: 014e 533d 04b2 0bbe a374 403e 7ebf 503e
00000120: 8d3a ab3d ad5b 9a3e 43b2 c03d 697d d5be
00000130: b578 2bbe 5cef 01bf 1d31 d63d 451f 073e
00000140: 82bc 1cbf 4379 f6bd 90d3 5f3e d921 74be
00000150: 1a03 6ebe 0f42 62be f619 0fbd 9292 7fbf
00000160: 406c abbe 803c 893e 2e5d 8fbe 5c53 2c3e
00000170: d1f9 a03e 726a b5be 4c00 b0be c2e7 dc3d
00000180: a249 613d 29b9 1e3c 761f bdbe 0c98 cebe
00000190: 99d2 8abd a599 193e fcd7 bfbc afb1 3e3d
000001a0: f797 4c3e e131 d33d 159a 1b3e bec9 1fbf
000001b0: 1e4c 613e b031 3b3e 1c6e e2be 1198 e5bc
000001c0: b38d 69be 30f5 a4be 24af 6e3e 50d1 8ebe
000001d0: 093c 83be 1983 a1be de80 e5be 4440 8b3d
000001e0: fe23 0d3d a97f a23d e8c2 7e3c b31f 5ebe
000001f0: ec7a 373e 9ddb 71be 74b2 b03d 0a87 bb3e
00000200: 9986 173e b3e4 be3e 55c1 b8be de3d abbd
00000210: 23ba 03be 16f6 7cbe def6 ad3e 4061 c0be
00000220: b131 bb3e ba2c e3be c387 6f3e 03e3 0d3e
00000230: f9ca 053e f2a3 043e 631b 51bd d85b 8e3e
00000240: 9e7c a43b 2c05 67be ef54 08be 0a07 013e
00000250: f06d fdbd 4ed3 85be 3a77 09be 1b43 06bf
00000260: eee6 553e 6688 51be 418b a5be bad5 823d
00000270: 81a5 06bf 5f37 d5be dfd5 abbe 6528 32be
00000280: 56fb 583e 56a2 44be 5de5 b0be 7ea7 93be
00000290: 007d 223e 33c8 bc3e ae26 de3c 36fb 543e
000002a0: aace debe b87c 4d3d dbb7 babd ec96 553e
000002b0: 7827 813d 3dfd 303e ca61 a93d 28c1 8abe
000002c0: f153 e9bd fae0 633e 5215 093e d2a5 8ebe
000002d0: 0013 223e 43cc 3b3d 588d 313d eed4 b3be
000002e0: 8605 c93e 2d8c 9cbe 4b15 3abe 0c05 eabe
000002f0: d948 3b3e b52d fbbe 88be e5bd 01d6 263e
00000300: ce0f 3a3e 47ea a93e 9764 253e 7719 173e
00000310: f4dd 4b3e 31cd c7bd 6c01 00bd 1f07 f2bb
00000320: 0584 9fbd e27d 14be 6826 8a3e 4db1 a5bc
00000330: cf2b 8d3d 9a4d 04bf dd66 563e 1d34 033d
00000340: d995 a73e 9106 4cbe baa8 ecbd f4f6 c93d
00000350: 9d8b 7e3d 93d0 003e 0905 b6be 6b3a aebe
00000360: 7900 f63c 86c8 693e f1f5 b93d 3df6 cabe
00000370: 3812 5bbc fc7f 17be 44c1 eabb 04dd 883e
00000380: 920d 6ebe 2ced 5b3e 6fdc ce3d 7b5a 4dbf
00000390: f556 a13d 4e2b 373d 33de 8fbd 8f21 903c
000003a0: 208a b73b b355 603d f567 1abc 6e36 393d
000003b0: c98c b5be 22e9 b5be dcb0 71bf fa49 1bbe
000003c0: ebe1 5e3e 026a c53d b1de f6be 2554 6dbf
000003d0: d105 b5bc 2ac2 a93e 1376 39bf 674f adbe
000003e0: 74d3 59bf 98b8 06bf 2ac9 b1bd 2001 09be
000003f0: 1c44 77be f67d 14be 4b04 ae3d d1ed 683e
-0.11634746 -0.47677827 -0.017024359 -0.34552786 0.037483245 0.19127834 -0.27113625 -0.24363133
0.01951147 0.33204558 -0.6292782 -0.6256087 -0.07162717 0.2662316 0.06466137 0.063169576
-0.17630273 -0.23855428 0.062270988 0.2102751 0.09897196 -0.25949812 -0.03432693 -0.44713122
-0.21038154 0.22230197 0.007639445 -0.44316673 0.06376727 0.20153575 -0.24472478 -0.03221851
0.25359035 -0.1018 -0.4263239 0.28684655 -0.4740661 0.3284776 0.26258078 -0.35271826
-0.17101529 0.04519102 0.01667253 -0.40815818 -0.30064607 -0.5266276 -0.048581246 -0.3693532
0.06261986 0.058303475 0.021066612 0.36838046 -0.2726787 0.31268674 -0.008326021 0.17137174
0.3495777 0.25988623 -0.048431475 -0.38032085 0.15976456 -0.03755826 0.2930365 -0.3867294
0.057429504 0.051791538 -0.01850221 -0.3244574 0.051588062 -0.13642126 0.18794493 0.20385548
0.08360777 0.30148068 0.09409001 -0.41697243 -0.16745265 -0.5075586 0.10458586 0.13195522
-0.6122514 -0.120348476 0.21858048 -0.23841037 -0.2324337 -0.22095512 -0.034936868 -0.99833024
-0.33481026 0.2680397 -0.28000778 0.16828674 0.31440595 -0.35432774 -0.34375226 0.10786392
0.055001862 0.0096877 -0.36938065 -0.40350378 -0.067784496 0.15000017 -0.023418419 0.04655617
0.19979845 0.10312248 0.15195496 -0.6241721 0.22001693 0.18280673 -0.44224632 -0.028026612
-0.2280796 -0.32218313 0.23308998 -0.27894068 -0.2563174 -0.31545332 -0.4482488 0.06799367
0.034458153 0.079345055 0.015549399 -0.2169178 0.17917985 -0.23618932 0.08627787 0.36626464
0.14797439 0.3728386 -0.36085 -0.083614096 -0.12863974 -0.2470325 0.33977407 -0.37574196
0.3656135 -0.4437006 0.23391633 0.1385613 0.13065709 0.12953165 -0.05105151 0.27804446
0.0050197383 -0.22560567 -0.1331365 0.12600341 -0.123744845 -0.26137775 -0.13424388 -0.52446145
0.20888874 -0.20462188 -0.32332805 0.06388421 -0.5259629 -0.41643807 -0.33561608 -0.17398222
0.21189627 -0.19202551 -0.3454999 -0.28838724 0.15867996 0.3687149 0.027118053 0.20798954
-0.43517047 0.05016777 -0.09117099 0.20858353 0.06306356 0.17284103 0.08270605 -0.27100492
-0.11392964 0.2225379 0.1338704 -0.27860886 0.1582756 0.045849096 0.043347687 -0.3512339
0.39262027 -0.30575696 -0.18172185 -0.45706975 0.18289508 -0.4905831 -0.112179816 0.16292574
0.18170092 0.33186552 0.16151653 0.14755808 0.19908887 -0.09755934 -0.031251356 -0.007386103
-0.077888526 -0.14501145 0.26982427 -0.020226145 0.068931215 -0.5168091 0.20937677 0.03203212
0.32731512 -0.1992438 -0.115556195 0.09861556 0.062144864 0.12579565 -0.35550717 -0.34028944
0.030029522 0.228304 0.09080113 -0.3964099 -0.013371043 -0.14794916 -0.0071641523 0.26731122
-0.23247364 0.21477193 0.10100638 -0.8021619 0.07877914 0.044719033 -0.07024803 0.017594127
0.0056011826 0.05476923 -0.009424199 0.045217924 -0.35458973 -0.3552943 -0.9441049 -0.15164939
0.21765868 0.0963936 -0.48216775 -0.9270652 -0.0220975 0.33155948 -0.7244579 -0.33849642
-0.85088277 -0.5262542 -0.08680947 -0.13379335 -0.24147075 -0.14501175 0.084969126 0.2274697

4.bias f4 [10]
00000000: f791 2abe 7efd 0fbd e43d 00be 1cb3 55bd
00000010: b429 893c eac0 473e 93b8 083c c68f 05be
00000020: 7895 063e 80be b93d
-0.16657244 -0.03515386 -0.1252361 -0.052172765 0.016743518 0.19507185 0.008344787 -0.13043126
0.13142955 0.09069538
